Results saved to: ./data/00001-val-train
Model: "model_1"
_________________________________________________________________
 Layer (type)                Output Shape              Param #   
=================================================================
 input_2 (InputLayer)        [(None, 48, 48, 3)]       0         
                                                                 
 zcmn_0_zp (ZeroPadding2D)   (None, 52, 52, 3)         0         
                                                                 
 zcmn_0_c (Conv2D)           (None, 46, 46, 200)       29600     
                                                                 
 zcmn_0_mp (MaxPooling2D)    (None, 23, 23, 200)       0         
                                                                 
 tf.nn.local_response_normal  (None, 23, 23, 200)      0         
 ization_3 (TFOpLambda)                                          
                                                                 
 zcmn_1_zp (ZeroPadding2D)   (None, 27, 27, 200)       0         
                                                                 
 zcmn_1_c (Conv2D)           (None, 24, 24, 250)       800250    
                                                                 
 zcmn_1_mp (MaxPooling2D)    (None, 12, 12, 250)       0         
                                                                 
 tf.nn.local_response_normal  (None, 12, 12, 250)      0         
 ization_4 (TFOpLambda)                                          
                                                                 
 zcmn_2_zp (ZeroPadding2D)   (None, 16, 16, 250)       0         
                                                                 
 zcmn_2_c (Conv2D)           (None, 13, 13, 350)       1400350   
                                                                 
 zcmn_2_mp (MaxPooling2D)    (None, 6, 6, 350)         0         
                                                                 
 tf.nn.local_response_normal  (None, 6, 6, 350)        0         
 ization_5 (TFOpLambda)                                          
                                                                 
 flatten_1 (Flatten)         (None, 12600)             0         
                                                                 
 dense_2 (Dense)             (None, 400)               5040400   
                                                                 
 dense_3 (Dense)             (None, 200)               80200     
                                                                 
=================================================================
Total params: 7,350,800
Trainable params: 7,350,800
Non-trainable params: 0
_________________________________________________________________
Epoch 1/100
645/645 [==============================] - 64s 77ms/step - loss: 2.6238 - accuracy: 0.4544 - precision_1: 0.9764 - recall_1: 0.1976 - f1_score: 0.2871 - val_loss: 0.9887 - val_accuracy: 0.7827 - val_precision_1: 0.9643 - val_recall_1: 0.5526 - val_f1_score: 0.7006 - lr: 1.0000e-04
…
