Results saved to: ./data/00001-val-train
Model: "model"
_________________________________________________________________
 Layer (type)                Output Shape              Param #   
=================================================================
 input_1 (InputLayer)        [(None, 48, 48, 3)]       0         
                                                                 
 zcmn_0_zp (ZeroPadding2D)   (None, 52, 52, 3)         0         
                                                                 
 zcmn_0_c (Conv2D)           (None, 46, 46, 200)       29600     
                                                                 
 zcmn_0_mp (MaxPooling2D)    (None, 23, 23, 200)       0         
                                                                 
 tf.nn.local_response_normal  (None, 23, 23, 200)      0         
 ization (TFOpLambda)                                            
                                                                 
 zcmn_1_zp (ZeroPadding2D)   (None, 27, 27, 200)       0         
                                                                 
 zcmn_1_c (Conv2D)           (None, 24, 24, 250)       800250    
                                                                 
 zcmn_1_mp (MaxPooling2D)    (None, 12, 12, 250)       0         
                                                                 
 tf.nn.local_response_normal  (None, 12, 12, 250)      0         
 ization_1 (TFOpLambda)                                          
                                                                 
 zcmn_2_zp (ZeroPadding2D)   (None, 16, 16, 250)       0         
                                                                 
 zcmn_2_c (Conv2D)           (None, 13, 13, 350)       1400350   
                                                                 
 zcmn_2_mp (MaxPooling2D)    (None, 6, 6, 350)         0         
                                                                 
 tf.nn.local_response_normal  (None, 6, 6, 350)        0         
 ization_2 (TFOpLambda)                                          
                                                                 
 flatten (Flatten)           (None, 12600)             0         
                                                                 
 dense (Dense)               (None, 400)               5040400   
                                                                 
 dense_1 (Dense)             (None, 43)                17243     
                                                                 
=================================================================
Total params: 7,287,843
Trainable params: 7,287,843
Non-trainable params: 0
_________________________________________________________________
Epoch 1/100
628/628 [==============================] - 61s 77ms/step - loss: 1.1541 - accuracy: 0.7049 - precision: 0.9715 - recall: 0.5300 - f1_score: 0.6152 - val_loss: 0.2261 - val_accuracy: 0.9573 - val_precision: 0.9845 - val_recall: 0.9151 - val_f1_score: 0.9481 - lr: 1.0000e-04
…
