Results saved to: ./data/00002-val-train
Model: "model_1"
__________________________________________________________________________________________________
 Layer (type)                   Output Shape         Param #     Connected to                     
==================================================================================================
 input_2 (InputLayer)           [(None, 48, 48, 3)]  0           []                               
                                                                                                  
 data_augmentation (Sequential)  (None, 48, 48, 3)   0           ['input_2[0][0]']                
                                                                                                  
 patches_3 (Patches)            (None, None, 48)     0           ['data_augmentation[0][0]']      
                                                                                                  
 patch_encoder_1 (PatchEncoder)  (None, 144, 32)     6176        ['patches_3[0][0]']              
                                                                                                  
 layer_normalization_9 (LayerNo  (None, 144, 32)     64          ['patch_encoder_1[0][0]']        
 rmalization)                                                                                     
                                                                                                  
 multi_head_attention_4 (MultiH  (None, 144, 32)     25184       ['layer_normalization_9[0][0]',  
 eadAttention)                                                    'layer_normalization_9[0][0]']  
                                                                                                  
 add_8 (Add)                    (None, 144, 32)      0           ['multi_head_attention_4[0][0]', 
                                                                  'patch_encoder_1[0][0]']        
                                                                                                  
 layer_normalization_10 (LayerN  (None, 144, 32)     64          ['add_8[0][0]']                  
 ormalization)                                                                                    
                                                                                                  
 dense_13 (Dense)               (None, 144, 64)      2112        ['layer_normalization_10[0][0]'] 
                                                                                                  
 dropout_11 (Dropout)           (None, 144, 64)      0           ['dense_13[0][0]']               
                                                                                                  
 dense_14 (Dense)               (None, 144, 32)      2080        ['dropout_11[0][0]']             
                                                                                                  
 dropout_12 (Dropout)           (None, 144, 32)      0           ['dense_14[0][0]']               
                                                                                                  
 add_9 (Add)                    (None, 144, 32)      0           ['dropout_12[0][0]',             
                                                                  'add_8[0][0]']                  
                                                                                                  
 layer_normalization_11 (LayerN  (None, 144, 32)     64          ['add_9[0][0]']                  
 ormalization)                                                                                    
                                                                                                  
 multi_head_attention_5 (MultiH  (None, 144, 32)     25184       ['layer_normalization_11[0][0]', 
 eadAttention)                                                    'layer_normalization_11[0][0]'] 
                                                                                                  
 add_10 (Add)                   (None, 144, 32)      0           ['multi_head_attention_5[0][0]', 
                                                                  'add_9[0][0]']                  
                                                                                                  
 layer_normalization_12 (LayerN  (None, 144, 32)     64          ['add_10[0][0]']                 
 ormalization)                                                                                    
                                                                                                  
 dense_15 (Dense)               (None, 144, 64)      2112        ['layer_normalization_12[0][0]'] 
                                                                                                  
 dropout_13 (Dropout)           (None, 144, 64)      0           ['dense_15[0][0]']               
                                                                                                  
 dense_16 (Dense)               (None, 144, 32)      2080        ['dropout_13[0][0]']             
                                                                                                  
 dropout_14 (Dropout)           (None, 144, 32)      0           ['dense_16[0][0]']               
                                                                                                  
 add_11 (Add)                   (None, 144, 32)      0           ['dropout_14[0][0]',             
                                                                  'add_10[0][0]']                 
                                                                                                  
 layer_normalization_13 (LayerN  (None, 144, 32)     64          ['add_11[0][0]']                 
 ormalization)                                                                                    
                                                                                                  
 multi_head_attention_6 (MultiH  (None, 144, 32)     25184       ['layer_normalization_13[0][0]', 
 eadAttention)                                                    'layer_normalization_13[0][0]'] 
                                                                                                  
 add_12 (Add)                   (None, 144, 32)      0           ['multi_head_attention_6[0][0]', 
                                                                  'add_11[0][0]']                 
                                                                                                  
 layer_normalization_14 (LayerN  (None, 144, 32)     64          ['add_12[0][0]']                 
 ormalization)                                                                                    
                                                                                                  
 dense_17 (Dense)               (None, 144, 64)      2112        ['layer_normalization_14[0][0]'] 
                                                                                                  
 dropout_15 (Dropout)           (None, 144, 64)      0           ['dense_17[0][0]']               
                                                                                                  
 dense_18 (Dense)               (None, 144, 32)      2080        ['dropout_15[0][0]']             
                                                                                                  
 dropout_16 (Dropout)           (None, 144, 32)      0           ['dense_18[0][0]']               
                                                                                                  
 add_13 (Add)                   (None, 144, 32)      0           ['dropout_16[0][0]',             
                                                                  'add_12[0][0]']                 
                                                                                                  
 layer_normalization_15 (LayerN  (None, 144, 32)     64          ['add_13[0][0]']                 
 ormalization)                                                                                    
                                                                                                  
 multi_head_attention_7 (MultiH  (None, 144, 32)     25184       ['layer_normalization_15[0][0]', 
 eadAttention)                                                    'layer_normalization_15[0][0]'] 
                                                                                                  
 add_14 (Add)                   (None, 144, 32)      0           ['multi_head_attention_7[0][0]', 
                                                                  'add_13[0][0]']                 
                                                                                                  
 layer_normalization_16 (LayerN  (None, 144, 32)     64          ['add_14[0][0]']                 
 ormalization)                                                                                    
                                                                                                  
 dense_19 (Dense)               (None, 144, 64)      2112        ['layer_normalization_16[0][0]'] 
                                                                                                  
 dropout_17 (Dropout)           (None, 144, 64)      0           ['dense_19[0][0]']               
                                                                                                  
 dense_20 (Dense)               (None, 144, 32)      2080        ['dropout_17[0][0]']             
                                                                                                  
 dropout_18 (Dropout)           (None, 144, 32)      0           ['dense_20[0][0]']               
                                                                                                  
 add_15 (Add)                   (None, 144, 32)      0           ['dropout_18[0][0]',             
                                                                  'add_14[0][0]']                 
                                                                                                  
 layer_normalization_17 (LayerN  (None, 144, 32)     64          ['add_15[0][0]']                 
 ormalization)                                                                                    
                                                                                                  
 flatten_1 (Flatten)            (None, 4608)         0           ['layer_normalization_17[0][0]'] 
                                                                                                  
 dropout_19 (Dropout)           (None, 4608)         0           ['flatten_1[0][0]']              
                                                                                                  
 dense_21 (Dense)               (None, 512)          2359808     ['dropout_19[0][0]']             
                                                                                                  
 dropout_20 (Dropout)           (None, 512)          0           ['dense_21[0][0]']               
                                                                                                  
 dense_22 (Dense)               (None, 256)          131328      ['dropout_20[0][0]']             
                                                                                                  
 dropout_21 (Dropout)           (None, 256)          0           ['dense_22[0][0]']               
                                                                                                  
 dense_23 (Dense)               (None, 200)          51400       ['dropout_21[0][0]']             
                                                                                                  
==================================================================================================
Total params: 2,666,792
Trainable params: 2,666,792
Non-trainable params: 0
__________________________________________________________________________________________________
…
