Model: "model"
__________________________________________________________________________________________________
 Layer (type)                   Output Shape         Param #     Connected to                     
==================================================================================================
 input_1 (InputLayer)           [(None, 48, 48, 3)]  0           []                               
                                                                                                  
 data_augmentation (Sequential)  (None, 48, 48, 3)   0           ['input_1[0][0]']                
                                                                                                  
 patches_1 (Patches)            (None, None, 48)     0           ['data_augmentation[0][0]']      
                                                                                                  
 patch_encoder (PatchEncoder)   (None, 144, 32)      6176        ['patches_1[0][0]']              
                                                                                                  
 layer_normalization (LayerNorm  (None, 144, 32)     64          ['patch_encoder[0][0]']          
 alization)                                                                                       
                                                                                                  
 multi_head_attention (MultiHea  (None, 144, 32)     25184       ['layer_normalization[0][0]',    
 dAttention)                                                      'layer_normalization[0][0]']    
                                                                                                  
 add (Add)                      (None, 144, 32)      0           ['multi_head_attention[0][0]',   
                                                                  'patch_encoder[0][0]']          
                                                                                                  
 layer_normalization_1 (LayerNo  (None, 144, 32)     64          ['add[0][0]']                    
 rmalization)                                                                                     
                                                                                                  
 dense_1 (Dense)                (None, 144, 64)      2112        ['layer_normalization_1[0][0]']  
                                                                                                  
 dropout (Dropout)              (None, 144, 64)      0           ['dense_1[0][0]']                
                                                                                                  
 dense_2 (Dense)                (None, 144, 32)      2080        ['dropout[0][0]']                
                                                                                                  
 dropout_1 (Dropout)            (None, 144, 32)      0           ['dense_2[0][0]']                
                                                                                                  
 add_1 (Add)                    (None, 144, 32)      0           ['dropout_1[0][0]',              
                                                                  'add[0][0]']                    
                                                                                                  
 layer_normalization_2 (LayerNo  (None, 144, 32)     64          ['add_1[0][0]']                  
 rmalization)                                                                                     
                                                                                                  
 multi_head_attention_1 (MultiH  (None, 144, 32)     25184       ['layer_normalization_2[0][0]',  
 eadAttention)                                                    'layer_normalization_2[0][0]']  
                                                                                                  
 add_2 (Add)                    (None, 144, 32)      0           ['multi_head_attention_1[0][0]', 
                                                                  'add_1[0][0]']                  
                                                                                                  
 layer_normalization_3 (LayerNo  (None, 144, 32)     64          ['add_2[0][0]']                  
 rmalization)                                                                                     
                                                                                                  
 dense_3 (Dense)                (None, 144, 64)      2112        ['layer_normalization_3[0][0]']  
                                                                                                  
 dropout_2 (Dropout)            (None, 144, 64)      0           ['dense_3[0][0]']                
                                                                                                  
 dense_4 (Dense)                (None, 144, 32)      2080        ['dropout_2[0][0]']              
                                                                                                  
 dropout_3 (Dropout)            (None, 144, 32)      0           ['dense_4[0][0]']                
                                                                                                  
 add_3 (Add)                    (None, 144, 32)      0           ['dropout_3[0][0]',              
                                                                  'add_2[0][0]']                  
                                                                                                  
 layer_normalization_4 (LayerNo  (None, 144, 32)     64          ['add_3[0][0]']                  
 rmalization)                                                                                     
                                                                                                  
 multi_head_attention_2 (MultiH  (None, 144, 32)     25184       ['layer_normalization_4[0][0]',  
 eadAttention)                                                    'layer_normalization_4[0][0]']  
                                                                                                  
 add_4 (Add)                    (None, 144, 32)      0           ['multi_head_attention_2[0][0]', 
                                                                  'add_3[0][0]']                  
                                                                                                  
 layer_normalization_5 (LayerNo  (None, 144, 32)     64          ['add_4[0][0]']                  
 rmalization)                                                                                     
                                                                                                  
 dense_5 (Dense)                (None, 144, 64)      2112        ['layer_normalization_5[0][0]']  
                                                                                                  
 dropout_4 (Dropout)            (None, 144, 64)      0           ['dense_5[0][0]']                
                                                                                                  
 dense_6 (Dense)                (None, 144, 32)      2080        ['dropout_4[0][0]']              
                                                                                                  
 dropout_5 (Dropout)            (None, 144, 32)      0           ['dense_6[0][0]']                
                                                                                                  
 add_5 (Add)                    (None, 144, 32)      0           ['dropout_5[0][0]',              
                                                                  'add_4[0][0]']                  
                                                                                                  
 layer_normalization_6 (LayerNo  (None, 144, 32)     64          ['add_5[0][0]']                  
 rmalization)                                                                                     
                                                                                                  
 multi_head_attention_3 (MultiH  (None, 144, 32)     25184       ['layer_normalization_6[0][0]',  
 eadAttention)                                                    'layer_normalization_6[0][0]']  
                                                                                                  
 add_6 (Add)                    (None, 144, 32)      0           ['multi_head_attention_3[0][0]', 
                                                                  'add_5[0][0]']                  
                                                                                                  
 layer_normalization_7 (LayerNo  (None, 144, 32)     64          ['add_6[0][0]']                  
 rmalization)                                                                                     
                                                                                                  
 dense_7 (Dense)                (None, 144, 64)      2112        ['layer_normalization_7[0][0]']  
                                                                                                  
 dropout_6 (Dropout)            (None, 144, 64)      0           ['dense_7[0][0]']                
                                                                                                  
 dense_8 (Dense)                (None, 144, 32)      2080        ['dropout_6[0][0]']              
                                                                                                  
 dropout_7 (Dropout)            (None, 144, 32)      0           ['dense_8[0][0]']                
                                                                                                  
 add_7 (Add)                    (None, 144, 32)      0           ['dropout_7[0][0]',              
                                                                  'add_6[0][0]']                  
                                                                                                  
 layer_normalization_8 (LayerNo  (None, 144, 32)     64          ['add_7[0][0]']                  
 rmalization)                                                                                     
                                                                                                  
 flatten (Flatten)              (None, 4608)         0           ['layer_normalization_8[0][0]']  
                                                                                                  
 dropout_8 (Dropout)            (None, 4608)         0           ['flatten[0][0]']                
                                                                                                  
 dense_9 (Dense)                (None, 512)          2359808     ['dropout_8[0][0]']              
                                                                                                  
 dropout_9 (Dropout)            (None, 512)          0           ['dense_9[0][0]']                
                                                                                                  
 dense_10 (Dense)               (None, 256)          131328      ['dropout_9[0][0]']              
                                                                                                  
 dropout_10 (Dropout)           (None, 256)          0           ['dense_10[0][0]']               
                                                                                                  
 dense_11 (Dense)               (None, 200)          51400       ['dropout_10[0][0]']             
                                                                                                  
==================================================================================================
Total params: 2,666,792
Trainable params: 2,666,792
Non-trainable params: 0
__________________________________________________________________________________________________
…
